tutorial/models/single_fully_connected_snn/best_model.pth (torch, 96616 bytes, 3 tensors)

layer.1.weight f4 [10, 784]
00000000: ee30 26bc 3898 12bd 4628 d93c 9c44 9c3c
00000010: 70ec 5b3b eb1a f5bc 00d1 fa3c 83a6 8d3b
00000020: 6dcb 0ebd 2738 06bd 1f5f 0dbd 6823 2cbd
00000030: fc20 9cbc a552 2fbc 8330 aabc 1ca7 8abc
00000040: 6a00 a83c d175 1abd 95be ddbc 923b 913c
00000050: acc7 ab3c cb37 91bc db6d ac3c f64e debc
00000060: b3bb 023d 29a2 2ebc 4ac0 d7ba a42f 723c
00000070: 8679 b93c 4c2b 2bbd dbfe 2c3c 883b c6bc
00000080: 1c25 00bc f229 f63c c08e f3ba 7a01 843c
00000090: c069 d83c c036 033b 0ea2 93be 6ef6 513f
000000a0: 3f46 653f 14df 5c3f 5702 02bf d74a bf3e
000000b0: 0e1f ca3e d134 f53e bc0c f0bc 0b5d 3a3d
000000c0: b3da 543b be18 55bd 6da9 2b3c 94a8 0a3d
000000d0: 1965 1bbd 44a7 b4bb f890 653c c161 b6bb
000000e0: 40b4 da3c c034 a0ba e1a7 753c 35d7 cb3e
000000f0: 29ba 2c3f 47ee afbd 4b6e 40bf adbf 573e
00000100: c634 9fbe 5331 8bbf 3e38 85bf d376 24bf
00000110: 4e69 65bf 7239 05bf 77ac 37bf af8e 92bf
00000120: 3382 a1be 62c1 c5bf 8fbf 82bf b2b9 79be
00000130: ea56 bebf 5f3e 63bf ac0b 36be 011f 97bd
00000140: f78e a2bd a514 93bc 9681 1d3b bcd1 9b3c
00000150: be2f 1fbc 866a 23bc 4037 84ba 8121 103e
00000160: 8fd6 05be 6f43 b83e a5b5 87bf df31 09bf
00000170: d3eb 273c 7dca 72bf 6263 65bf 9110 99be
00000180: a72d c8be dc92 acbd 03b3 59be 6c9f e1be
00000190: f32c 4cbe 3d40 89bd 130a 0dbf 59e1 b0be
000001a0: c0ad 6ebe 23ed 41bf 1509 26bf 4bf1 3ebe
000001b0: 7e3e 003e bad3 e8be 2bca 59bf 8069 293a
000001c0: 7a88 9bbc 71af 45bd 0027 a73a 42a5 32bf
000001d0: 296a 49bf 5ab7 91bf dd76 c6be 3fc7 44bf
000001e0: caaf 7a3e 6e27 033e 4a00 8cbd c69e cd3d
000001f0: f11d 40be 241d 173e 438c a0bc d3a4 293e
00000200: 5258 9ebe 2425 b03d b796 873d 01f7 e4bb
00000210: 60db d53d baf5 06be 6b2c 123e 85b5 e23c
00000220: f560 09bf d413 1cbf 98b8 61bf 80ce c4bc
00000230: 6e05 e5bc 1e41 48bd 3ddb 78bf 6676 a1be
00000240: ae0d 05bf a12e 60bf 160f 8f3e 6b11 a5be
00000250: 926f 1cbd 557b 39be a91e 543e 9293 2abc
00000260: b28d a4bd b375 ca3b bbb3 2e3e 1367 553d
00000270: 2fef 063e f1c7 b1bc 02d0 b73d 4351 dcbd
00000280: 198e b03c 83e8 75be 9821 10be bb46 19bc
00000290: 9a0a d5be 5721 5cbf 73b0 34bf a3b6 e9be
000002a0: 1e69 afbc 4709 4bbd 135c d3be 1346 68be
000002b0: 6997 76be de9d 3bbe c582 11be 0270 20be
000002c0: 6108 943d 20c0 f5be 04e1 5cbd 1752 71bd
000002d0: b2dd c8bd 0765 cc3d 4c62 173d 4d5b 4d3d
000002e0: 7b5a 9dbd 305b e23d f27c bd3d c49d 793d
000002f0: fff8 babc c1b9 4a3e ffb9 723e 70fb 13be
00000300: 4a47 10bf d368 9fbf 87a9 dabf 806a 70bf
00000310: 3f58 15bb b05e 34bc 610c 9cbe 0387 22bf
00000320: 68b1 d3be 1c26 4c3e ea1b db3d e58e ef3d
00000330: 66fd 98be 927b 923b e152 e3bc fc88 29bb
00000340: 6c1d c9bd ad5d 073e e7c7 a93b c446 583a
00000350: d941 a2bc 19cc 793e ace0 663e 9cdd 5f3e
00000360: 3263 ca3c 8150 033e 84c4 eabd f1bb b8bd
00000370: b5ea f3be 1808 0fbf cbc6 c1bf 4e34 273e
00000380: f834 793f 47a6 663c f81b 2c3f 2812 303f
00000390: 1ee8 58bf 196a 55be 1f80 873d 315e ca3d
000003a0: 9274 76bb 92fc 1539 0994 1b3d ea9d 30bd
000003b0: 2266 593e c6e2 e1bd 1f72 513e e776 3b3e
000003c0: cc2e ce3e 2285 213e d5c4 1b3e 8ad7 6b3c
000003d0: aaca 3c3b 65a9 4d3d df98 53bc 800c 963e
000003e0: 45be fcbe 3bd0 cdbf 866f b7bf b9ab 90be
000003f0: 766f 30bc d32b 80bc 0771 803f 98ac 59be
-0.010143502 -0.0357897 0.026508462 0.019075684 0.0033557676 -0.029920062 0.030617237 0.0043228283
-0.03486197 -0.032768395 -0.034514543 -0.042025954 -0.019058697 -0.010700856 -0.020775085 -0.016925387
0.02050801 -0.037710015 -0.027068416 0.0177286 0.020969234 -0.0177268 0.021048477 -0.02713726
0.031917285 -0.010658779 -0.0016460505 0.014781866 0.022640955 -0.041789338 0.010558809 -0.024198309
-0.007821348 0.030049298 -0.0018581972 0.016113985 0.026417613 0.0020021647 -0.28834575 0.82016647
0.8956031 0.8627789 -0.5078482 0.37361786 0.39476818 0.47891858 -0.029302947 0.04549889
0.0032478988 -0.05202555 0.010477406 0.033852175 -0.03793821 -0.0055131037 0.014011614 -0.0055658524
0.026697278 -0.0012222752 0.014993639 0.39812627 0.6747156 -0.0859037 -0.75168294 0.21069212
-0.3109495 -1.0874428 -1.0407789 -0.6424381 -0.8961381 -0.5204078 -0.71747535 -1.1449794
-0.31544647 -1.5449641 -1.0214709 -0.24387243 -1.4870274 -0.88767046 -0.1777789 -0.073789604
-0.07937425 -0.01795418 0.0024033538 0.019020908 -0.0097159725 -0.009974128 -0.0010087267 0.1407528
-0.13070129 0.35988948 -1.0602309 -0.5359172 0.010249096 -0.9484022 -0.8960477 -0.29895452
-0.3909733 -0.08426449 -0.21259694 -0.44066942 -0.19939022 -0.067017056 -0.550935 -0.34546927
-0.23308468 -0.75752467 -0.6485761 -0.18646733 0.12523839 -0.45474035 -0.8507411 0.0006462559
-0.018985976 -0.048263017 0.0012752712 -0.69783413 -0.7867761 -1.138408 -0.3876256 -0.76866525
0.2448112 0.1280801 -0.06835993 0.10040049 -0.18761422 0.1475721 -0.019598132 0.16566782
-0.30926758 0.08600834 0.066205435 -0.006987453 0.10442233 -0.13179675 0.14274757 0.027674446
-0.5366357 -0.60967755 -0.8817229 -0.024024248 -0.02795669 -0.048890226 -0.9720953 -0.31535643
-0.51974 -0.8757115 0.27941197 -0.3223985 -0.03819234 -0.18113454 0.20714821 -0.01041116
-0.08034839 0.0061785816 0.17060749 0.052100252 0.13177179 -0.021701785 0.08975221 -0.10757687
0.021552132 -0.24014477 -0.14075315 -0.009355242 -0.4160965 -0.8598837 -0.7058174 -0.45647153
-0.021412428 -0.049569394 -0.41281185 -0.22682981 -0.24081196 -0.1832194 -0.14210041 -0.15667728
0.07228161 -0.47998142 -0.05392553 -0.058916178 -0.0980791 0.09980207 0.036958978 0.0501359
-0.076832734 0.11052549 0.09252347 0.060941473 -0.022823809 0.19797422 0.23703764 -0.14451385
-0.5635878 -1.2453865 -1.7082986 -0.93912506 -0.0022788194 -0.011008903 -0.30478194 -0.6348726
-0.41346288 0.19936413 0.106986836 0.11697177 -0.29880828 0.004470297 -0.02774948 -0.0025869003
-0.09820065 0.13219328 0.005181301 0.0008250291 -0.01980679 0.24394263 0.22546643 0.21861881
0.024705503 0.12823679 -0.11463264 -0.09020222 -0.47640005 -0.55871725 -1.5138792 0.16328546
0.9734645 0.01407773 0.67230177 0.68777704 -0.8472918 -0.20841254 0.06616234 0.09881247
-0.0037606102 0.00014303837 0.037982974 -0.04311935 0.21230367 -0.11029582 0.2045369 0.18307076
0.40270078 0.15773442 0.15211804 0.01439465 0.002880732 0.050210375 -0.012914865 0.29306412
-0.49363914 -1.6079172 -1.4330909 -0.28256014 -0.010768762 -0.015645897 1.0034493 -0.21257246

exp_avg f4 [10, 784]
00000000: 0000 0000 0400 0000 0400 0000 0000 0000
00000010: 0000 0000 0400 0080 0400 0080 0400 0000
00000020: 0000 0000 0000 0000 0400 0000 0400 0000
00000030: 0400 0000 0400 0080 0000 0000 0000 0000
00000040: 0400 0080 0400 0000 0400 0080 0400 0080
00000050: 0000 0000 0400 0000 0400 0000 0400 0000
00000060: 0000 0000 0400 0080 0400 0080 0000 0000
00000070: 0000 0000 0400 0000 0400 0000 0000 0000
00000080: 0400 0080 0000 0000 0000 0000 0400 0000
00000090: 0000 0000 0400 0000 0c71 8715 5981 c5aa
000000a0: deb9 baab c4c4 c8aa 0400 0000 8303 0c8c
000000b0: 5651 ab8c 2768 188c 0400 0000 0400 0000
000000c0: 0400 0000 0400 0000 0400 0000 0400 0080
000000d0: 0400 0000 0400 0080 0000 0000 0400 0000
000000e0: 0000 0000 0000 0000 0400 0000 76b3 a09e
000000f0: 6055 aa9c 0400 0000 0400 0000 715c f49b
00000100: 2452 962d 9cf7 f02d 9e52 972c 7bbe 512e
00000110: fa4c 0230 b8b5 d5b3 a84c a0b3 ead3 4529
00000120: f8be 162b 1429 8828 e567 ec31 be2f ad32
00000130: 0fd1 4d32 eb09 f92e 0400 0000 0400 0000
00000140: 0400 0000 0000 0000 0400 0080 0000 0000
00000150: 0400 0000 0000 0000 0000 0000 35c3 729f
00000160: 0539 d39e 2112 0080 c3f1 4c2d fbc5 f42d
00000170: 1824 07b1 eae5 ab36 c835 5b37 e431 4435
00000180: 5bec cc36 cc4d c036 86a8 0737 c90c 0537
00000190: bb9d 9736 5fa5 2236 13fb 64b4 c072 0ab3
000001a0: 44ed 3436 4244 4c35 ec75 02b5 d7a1 5eb5
000001b0: 4bb1 99b5 2cb5 aab4 1a9d d314 0000 0000
000001c0: 0000 0000 0400 0000 0000 0000 5a40 2400
000001d0: ade4 2ca3 73b2 e3a2 9833 992d 8900 a42e
000001e0: fa88 3032 2d30 5837 31ca 5d37 4bf7 ca36
000001f0: 6297 b937 1d65 9537 c292 cc36 d6c3 0237
00000200: 25c5 94b6 8ea1 78b7 919e 09b8 d494 34b8
00000210: 0b97 bfb6 5b8d 1c37 b94b 8937 389a 2d37
00000220: da5b 25b5 a506 19b3 825f 9414 0000 0000
00000230: 0400 0000 0400 0000 26e4 0119 0337 8f94
00000240: d59d bcb5 d421 81b5 ca98 30b5 0163 64b5
00000250: bd8e a7b5 a134 5237 132c 4837 c43c ec36
00000260: 02a9 7137 968e 5237 aec8 9b36 f875 6eb7
00000270: 4f34 9eb7 5a42 47b8 e8e7 64b8 e9c2 16b8
00000280: e922 20b7 f0fc 9bb5 00d1 3f37 4c87 4436
00000290: 6e2c 3e33 be2f 952d 0400 0000 0400 0000
000002a0: 0400 0000 0400 0000 95f8 0b1d 0400 0000
000002b0: a5a1 2db6 dfe3 1eb6 61c9 a9b6 f324 fab6
000002c0: 3e1c 0ab7 44ee 5cb7 1488 c9b7 2cce d4b7
000002d0: 4a2e bcb7 c29d 00b8 f18f 1cb8 d5fe 09b8
000002e0: 9c71 60b8 866b 35b8 9e38 21b8 b7ca 0cb8
000002f0: 1359 53b7 f8e2 fe34 0357 bfb5 01fa fdb6
00000300: 7409 3c34 d913 0f33 9cd3 0a33 8a07 0000
00000310: 0400 0000 0400 0080 0400 0000 0400 0000
00000320: 71fb b0b5 76e5 36b5 2482 79b6 8211 7cb7
00000330: bdcb 93b7 883e 76b7 3b9b 03b8 3048 bbb7
00000340: 9650 07b8 30b2 3ab8 707a 5fb8 f9fd 6ab8
00000350: ef6e c0b8 4f9a a2b8 1b26 81b8 f05a 4cb8
00000360: 3910 99b7 76be 9e36 61b9 0cb7 2e88 d8b6
00000370: 2a08 9735 727d 0832 17e2 2b31 0400 0000
00000380: c53d c5b4 0400 0080 43a1 c7a1 c258 9ea1
00000390: b740 5233 bf2e 8534 1dcc a6b6 af16 3db7
000003a0: 95c3 9db7 9ef8 5fb7 39c7 bfb6 defe cfb6
000003b0: aa29 7db7 97a6 fbb7 c61d 22b8 e8bb 4cb8
000003c0: ba2f 36b8 c828 72b8 608e 8bb8 f7d5 e2b8
000003d0: 6ac6 38b8 dc14 b8b5 90d8 fdb6 f528 cfb6
000003e0: c8a9 bd35 6428 0c33 0daa 0c30 0400 0000
000003f0: 0400 0080 0400 0000 4965 44a1 3aac 241f
0.0 6e-45 6e-45 0.0 0.0 -6e-45 -6e-45 6e-45
0.0 0.0 6e-45 6e-45 6e-45 -6e-45 0.0 0.0
-6e-45 6e-45 -6e-45 -6e-45 0.0 6e-45 6e-45 6e-45
0.0 -6e-45 -6e-45 0.0 0.0 6e-45 6e-45 0.0
-6e-45 0.0 0.0 6e-45 0.0 6e-45 5.470442e-26 -3.5083983e-13
-1.3267683e-12 -3.566367e-13 6e-45 -1.0786264e-31 -2.6395674e-31 -1.1740996e-31 6e-45 6e-45
6e-45 6e-45 6e-45 -6e-45 6e-45 -6e-45 0.0 6e-45
0.0 0.0 6e-45 -1.7014882e-20 -1.1271725e-21 6e-45 6e-45 -4.0426153e-22
1.7089503e-11 2.7394802e-11 4.3008505e-12 4.769028e-11 4.7403115e-10 -9.95164e-08 -7.464524e-08 4.3926593e-14
5.355573e-13 1.5116848e-14 6.8803154e-09 2.0161561e-08 1.1980105e-08 1.1324971e-10 6e-45 6e-45
6e-45 0.0 -6e-45 0.0 6e-45 0.0 0.0 -5.1406965e-20
-2.2364077e-20 -6.503e-42 1.1649739e-11 2.782751e-11 -1.9665602e-09 5.1229626e-06 1.3065939e-05 7.308829e-07
6.107189e-06 5.7311026e-06 8.0858645e-06 7.9303945e-06 4.518513e-06 2.423614e-06 -2.1325495e-07 -3.2234993e-08
2.6960197e-06 7.609525e-07 -4.860037e-07 -8.293695e-07 -1.1450987e-06 -3.1796787e-07 2.1367521e-26 0.0
0.0 6e-45 0.0 3.329163e-39 -9.372563e-18 -6.1717414e-18 1.7416998e-11 7.4579516e-11
1.0275693e-08 1.288582e-05 1.3219703e-05 6.048858e-06 2.2124212e-05 1.7809269e-05 6.0967586e-06 7.7942e-06
-4.4336944e-06 -1.4819567e-05 -3.281102e-05 -4.305395e-05 -5.7098273e-06 9.3312365e-06 1.6366934e-05 1.034751e-05
-6.160095e-07 -3.562913e-08 1.4981852e-26 0.0 6e-45 6e-45 6.715218e-24 -1.4461008e-26
-1.4053027e-06 -9.621094e-07 -6.5787447e-07 -8.508069e-07 -1.2484012e-06 1.2529229e-05 1.1931191e-05 7.040422e-06
1.440407e-05 1.2550174e-05 4.642722e-06 -1.4213372e-05 -1.8859426e-05 -4.7507092e-05 -5.4575416e-05 -3.594431e-05
-9.544871e-06 -1.1622014e-06 1.1433149e-05 2.928503e-06 4.427823e-08 1.696054e-11 6e-45 6e-45
6e-45 6e-45 1.852501e-21 6e-45 -2.5873098e-06 -2.3676473e-06 -5.060036e-06 -7.454882e-06
-8.232017e-06 -1.3168497e-05 -2.4024434e-05 -2.5368376e-05 -2.2432901e-05 -3.06645e-05 -3.7327354e-05 -3.2900676e-05
-5.351157e-05 -4.3253902e-05 -3.843812e-05 -3.3567394e-05 -1.2597319e-05 4.7476328e-07 -1.4255933e-06 -7.569092e-06
1.7512303e-07 3.3312833e-08 3.2323086e-08 2.705e-42 6e-45 -6e-45 6e-45 6e-45
-1.3186201e-06 -6.8134193e-07 -3.7179643e-06 -1.5024447e-05 -1.7618639e-05 -1.4677302e-05 -3.1377404e-05 -2.2325752e-05
-3.226156e-05 -4.4511806e-05 -5.3281372e-05 -5.6026478e-05 -9.1759364e-05 -7.753504e-05 -6.158297e-05 -4.8722082e-05
-1.8246576e-05 4.7309395e-06 -8.387812e-06 -6.453155e-06 1.1252753e-06 7.944765e-09 2.5012292e-09 6e-45
-3.6739053e-07 -6e-45 -1.352745e-18 -1.072999e-18 4.8953293e-08 2.4807193e-07 -4.9709474e-06 -1.1270559e-05
-1.8806933e-05 -1.33497215e-05 -5.715436e-06 -6.198751e-06 -1.5089676e-05 -2.9999106e-05 -3.865154e-05 -4.881239e-05
-4.343663e-05 -5.7735277e-05 -6.654556e-05 -0.00010816374 -4.4053806e-05 -1.3715139e-06 -7.5651988e-06 -6.1738488e-06
1.413101e-06 3.2633025e-08 5.117336e-10 6e-45 -6e-45 6e-45 -6.6541433e-19 3.4870813e-20

exp_avg_sq f4 [10, 784]
00000000: 0000 0000 97a2 8f14 d6db 6417 0000 0000
00000010: 0000 0000 682f 5d1f 5844 2113 a739 3e18
00000020: 0000 0000 0000 0000 33bb 9f1d 9da2 490e
00000030: 26fe 1f08 6768 351b 0000 0000 0000 0000
00000040: 06ff 7e13 18fb 0917 445b 9521 f97b fa1c
00000050: 0000 0000 68d9 2919 0ccd d80a afa9 b218
00000060: 0000 0000 53ba 0d18 ca8e b31c 0000 0000
00000070: 0000 0000 09b5 cc20 1818 4c21 0000 0000
00000080: 5723 7322 0000 0000 0000 0000 ab4f 430a
00000090: 0000 0000 74f6 0820 3fe8 da24 3754 ab2c
000000a0: bfee 6a2e 918c 962c 136a af26 f469 f529
000000b0: 7ced ad2b b5dc 942a a8ef 0518 223b c81f
000000c0: fd15 b40d 934e 2911 6b6b bf0f cfb7 3921
000000d0: 8330 7d20 d054 8a1e 0000 0000 bd25 7111
000000e0: 0000 0000 0000 0000 f719 2a20 a9a0 1229
000000f0: bbce 2f27 b3e8 8020 a5b2 4e2b 9842 f12b
00000100: cf5f 672a d83a 2629 2f65 f928 f88f c42d
00000110: 85c8 952e e048 e32e 619e e12e 95fe 922d
00000120: 32ed 1f2f d0b7 082d 5895 3d2d 1781 4b2d
00000130: f4a5 aa2b aa21 af28 2799 5c17 6b30 5917
00000140: c692 e416 0000 0000 a01b 0d1d 0000 0000
00000150: 06f4 7d0f 0000 0000 0000 0000 227d 042b
00000160: a89f a12a 58cb 6d2b 670d 642c cd67 e92d
00000170: 1ea9 9a2f 207b 0430 c5ff 8730 6984 f930
00000180: 0393 3b31 47f3 9e31 534e ba31 b136 7e31
00000190: 2776 b531 99f3 c331 c589 9d31 f8e3 8e31
000001a0: 629f 2b31 7cf8 ba30 fb3a de2f 3c53 082e
000001b0: d98a 762d 2cf3 852c 0354 002a 0000 0000
000001c0: 0000 0000 0ba9 2d11 0000 0000 6466 ed28
000001d0: 9b05 2a2a 0dad 0d2b 74b4 8f2d b9dd 452f
000001e0: 0f90 7430 54fb 0e31 5bbe 7b31 f433 bc31
000001f0: c91d 3632 e741 8b32 fe69 a332 f4af b932
00000200: 5c5b cc32 45cf bc32 d37c 9032 fb15 7f32
00000210: 2d0c 4132 e4af c931 04ba 4531 9cc9 8e30
00000220: dfef ea2f 4773 672e e7c7 6629 0000 0000
00000230: 6bb6 6b17 34ae b710 002c 8d29 bc02 972a
00000240: 81c8 2c2c 3fc3 c92d 9f78 162f ef9e 9130
00000250: 9014 4c31 aba2 ba31 adee 2632 a879 9732
00000260: 44d1 db32 2030 0933 af0a 2d33 a005 4133
00000270: 36b2 4533 fab8 3c33 f52d 2833 4781 0133
00000280: 60b4 b732 50f9 6f32 94f1 e231 286a 4b31
00000290: 74c2 4830 b7da 372e b8a7 0226 dc4f a824
000002a0: 71ec 8d11 306a 4519 d05e 7626 4276 1926
000002b0: ad7e ad2d def5 bc2f 5a6b 8c30 6185 3631
000002c0: d922 e331 38f9 5932 aedb b232 5692 f932
000002d0: 897b 1933 7bdd 4733 88b9 6d33 bd59 7333
000002e0: b9f5 7a33 36f0 6c33 c84f 5433 1084 2b33
000002f0: 0433 0733 d662 a932 4d48 4532 b955 bb31
00000300: 6a4d 8f30 bb4d d22e 6dab c82a e24f 3a2a
00000310: 4b1f d217 d968 3a0c 5265 1b28 4f90 8d28
00000320: 447f 942e bb6c 3030 daf6 ee30 53fa ba31
00000330: a07e 4f32 c13e b232 cef7 fc32 ced3 2533
00000340: 7315 4833 a6e3 7333 1656 8033 3011 8133
00000350: bb36 8233 5292 7e33 1e82 7033 bb41 4033
00000360: f467 1f33 8877 e632 1128 9032 4616 1b32
00000370: a9fe 2d31 e902 cf2f dc3e d42c 5b93 6626
00000380: 4799 f72d 8b33 1c0d 397c 7029 ea7c 9c2c
00000390: 9bf7 302f 60f8 9a30 ee5a 6931 034c 2c32
000003a0: 9a4a 9d32 dad5 d932 b6e7 1933 530b 4233
000003b0: f5ca 6033 6b44 7233 feac 7b33 de2f 6b33
000003c0: c747 6733 8c2f 7133 1275 6833 a169 4733
000003d0: c15c 2033 b9e9 0233 28bb b832 c40b 4a32
000003e0: ef16 4531 be96 112f 2718 0b2b 3e68 1e25
000003f0: e51e 000a bf5f 550f d9bc 682a be27 f22e
0.0 1.450344e-26 7.3948245e-25 0.0 0.0 4.6837784e-20 2.0354753e-27 2.4586031e-24
0.0 0.0 4.228051e-21 2.4853458e-30 4.814607e-34 1.5005703e-22 0.0 0.0
3.2185043e-27 4.458401e-25 1.0120791e-18 1.6575658e-21 0.0 8.781e-24 2.0877173e-32 4.618326e-24
0.0 1.8317893e-24 1.1882136e-21 0.0 0.0 3.4678743e-19 6.9149776e-19 0.0
3.295135e-18 0.0 0.0 9.403892e-33 0.0 1.1601193e-19 9.493587e-17 4.869462e-12
5.341749e-11 4.2788624e-12 1.2171816e-15 1.08985656e-13 1.2358304e-12 2.6443227e-13 1.7310843e-24 8.480112e-20
1.109865e-30 1.3355962e-28 1.887543e-29 6.2923707e-19 2.1445985e-19 1.4646396e-20 0.0 1.9023177e-28
0.0 0.0 1.4408151e-19 3.2557863e-14 2.4398197e-15 2.183803e-19 7.343382e-13 1.7142563e-12
2.0550162e-13 3.6910443e-14 2.7688435e-14 2.2346555e-11 6.811355e-11 1.033571e-10 1.0259949e-10 1.6711335e-11
1.4545234e-10 7.7715195e-12 1.0776567e-11 1.1567878e-11 1.2125288e-12 1.9443502e-14 7.127914e-25 7.0177594e-25
3.6928014e-25 0.0 1.8675476e-21 0.0 1.252086e-29 0.0 0.0 4.7069477e-13
2.871013e-13 8.448151e-13 3.2408189e-12 2.653513e-11 2.8132602e-10 4.819629e-10 9.895237e-10 1.8154768e-09
2.7295648e-09 4.6260626e-09 5.422217e-09 3.6992953e-09 5.2812257e-09 5.702941e-09 4.584964e-09 4.158661e-09
2.4974374e-09 1.3603905e-09 4.0423473e-10 3.0996747e-11 1.4014311e-11 3.807085e-12 1.1397831e-13 0.0
0.0 1.3699384e-28 0.0 2.635669e-14 1.5100978e-13 5.033342e-13 1.6337355e-11 1.7995817e-10
8.89714e-10 2.0806583e-09 3.6633512e-09 5.4774265e-09 1.0600567e-08 1.6211699e-08 1.9023897e-08 2.1616849e-08
2.3790271e-08 2.1980336e-08 1.682057e-08 1.4847951e-08 1.1236847e-08 5.8698664e-09 2.877301e-09 1.0389161e-09
4.273479e-10 5.2625706e-11 5.1243647e-14 0.0 7.616284e-25 7.2449175e-29 6.2692906e-14 2.6824886e-13
2.4553972e-12 2.2937761e-11 1.3685274e-10 1.059531e-09 2.9697595e-09 5.4318057e-09 9.71674e-09 1.7634036e-08
2.5590118e-08 3.1941568e-08 4.0289418e-08 4.494143e-08 4.602972e-08 4.3940396e-08 3.9157346e-08 3.015273e-08
2.1386029e-08 1.3968318e-08 6.60493e-09 2.960073e-09 7.303591e-10 4.180364e-11 4.533011e-16 7.299367e-17
2.2391596e-28 1.0206106e-23 8.547689e-16 5.324281e-16 1.9724078e-11 3.43717e-10 1.0216852e-09 2.6560303e-09
6.6105312e-09 1.2687728e-08 2.0821826e-08 2.9053961e-08 3.5735443e-08 4.6534733e-08 5.5349602e-08 5.6659463e-08
5.8431144e-08 5.5166502e-08 4.9432657e-08 3.993415e-08 3.1478535e-08 1.9719135e-08 1.14833485e-08 5.452162e-09
1.0426622e-09 9.563502e-11 3.5646087e-13 1.6547834e-13 1.3578831e-24 1.436047e-31 8.626199e-15 1.5716729e-14
6.752868e-11 6.418294e-10 1.7386939e-09 5.441771e-09 1.2077777e-08 2.0750464e-08 2.944935e-08 3.860969e-08
4.6585637e-08 5.678489e-08 5.9761234e-08 6.010157e-08 6.063552e-08 5.927206e-08 5.5997695e-08 4.4763265e-08
3.7114617e-08 2.682988e-08 1.6782026e-08 9.027252e-09 2.531957e-09 3.7655148e-10 6.032381e-12 7.9996984e-16
2.8148718e-11 4.8133254e-31 5.339845e-14 4.447655e-12 1.6095074e-10 1.1275567e-09 3.395765e-09 1.0029001e-08
1.831113e-08 2.5359373e-08 3.583383e-08 4.5179444e-08 5.2338653e-08 5.640724e-08 5.8597827e-08 5.4758736e-08
5.384916e-08 5.615543e-08 5.4123184e-08 4.6429367e-08 3.7337262e-08 3.0480553e-08 2.1505528e-08 1.1760623e-08
2.868031e-09 1.3241228e-10 4.941624e-13 1.3739634e-16 6.1687864e-33 1.0520151e-29 2.0671259e-13 1.10119455e-10
