tutorial/models/single_fully_connected_snn/latest_model.pth (torch, 96632 bytes, 3 tensors)

layer.1.weight f4 [10, 784]
000000 73 63 97 3c 35 67 07 bc 37 40 72 3c 9c 44 9c 3c
       0.018480038 -0.008264353 0.014785818 0.019075684
000010 5b 5c c0 bc 25 57 23 bd 27 b3 72 3d 83 a6 8d 3b
       -0.023481539 -0.03987803 0.059252884 0.0043228283
000020 db 15 c8 bc 27 38 06 bd ab 5f b7 bc 68 23 2c bd
       -0.024424484 -0.032768395 -0.022384485 -0.042025954
000030 fc 20 9c bc a5 52 2f bc 80 73 73 bc f8 55 c9 bc
       -0.019058697 -0.010700856 -0.01485908 -0.024577126
000040 f3 c7 ae 3c 8d 4a 1a bd 12 01 66 bd f2 d3 a0 3c
       0.021335578 -0.037668753 -0.056153364 0.019632313
000050 86 b5 b5 3c 08 40 a0 3a f0 a4 b2 3c d1 10 3d bd
       0.022181284 0.0012226114 0.021807164 -0.046158615
000060 e5 f3 00 3d 29 a2 2e bc ea 35 ce bc a4 2f 72 3c
       0.031482596 -0.010658779 -0.025172193 0.014781866
000070 69 78 a4 3d 4c 2b 2b bd da 2b e2 bb 39 be 19 bd
       0.08030779 -0.041789338 -0.0069022 -0.037534926
000080 1c 25 00 bc da a7 01 3d 0f 69 c9 bc 64 56 8f 3c
       -0.007821348 0.031654216 -0.024586229 0.017497249
000090 c0 69 d8 3c 1e 31 8f bc 36 ea 08 bf 8d b3 c2 3f
       0.026417613 -0.017479476 -0.5348238 1.5211045
0000a0 ef a0 ef 3f b9 4d 02 40 7f ab a4 bf c2 92 fa 3e
       1.8720988 2.0359938 -1.2864836 0.48940092
0000b0 09 26 c1 3e 45 c4 1b 3f bc 0c f0 bc 0b 5d 3a 3d
       0.3772433 0.6084636 -0.029302947 0.04549889
0000c0 b3 da 54 3b 26 a7 a3 bd 01 05 6a bb 94 a8 0a 3d
       0.0032478988 -0.079908654 -0.003570855 0.033852175
0000d0 f9 12 02 bd 81 c2 51 b9 67 3e 73 3c c1 61 b6 bb
       -0.031756375 -0.00020004252 0.014846421 -0.0055658524
0000e0 62 7e d0 3c 22 69 1e 3c 1b 9f 35 3d 52 6e 31 3f
       0.025450889 0.00966862 0.044341188 0.6930896
0000f0 c0 37 b2 3f e3 92 d0 bd e7 6c c5 bf 3b 3b 62 3f
       1.3923264 -0.101842664 -1.5423859 0.8837163
000100 fd 74 5a be a9 88 e4 bf 3b e9 09 c0 69 a9 a2 bf
       -0.2133369 -1.7854205 -2.1548603 -1.270795
000110 12 52 f1 bf d9 5c 28 bf 64 58 82 bf 07 f9 e0 bf
       -1.8853171 -0.65766674 -1.0183225 -1.7575997
000120 a8 e6 67 be 49 6f 2d c0 e0 4a a2 bf bf 2d 46 bd
       -0.22646582 -2.7099173 -1.26791 -0.04838347
000130 76 35 69 c0 ee 8f d1 bf db 0a 8f be 7c 8f 7e be
       -3.643888 -1.6372049 -0.2793797 -0.24859422
000140 7a e8 44 be c0 d9 18 3c 87 b4 5b 3a de 7f 98 3c
       -0.19229308 0.009329259 0.00083810877 0.01861566
000150 be 2f 1f bc 17 b2 ab bb 17 fd b6 bb ba 8a bc 3c
       -0.0097159725 -0.005239736 -0.00558437 0.023015369
000160 35 a1 7c be 92 fd be 3f 9d 7d ea bf 76 9b 89 bf
       -0.2467087 1.4921134 -1.8319584 -1.0750568
000170 45 ee 07 3e 96 17 cd bf f8 7e c9 bf 83 41 48 be
       0.13274486 -1.6022823 -1.5741873 -0.1955624
000180 7a 5c 24 bf 7e 55 54 be cc 6e 99 be 5e 87 1c bf
       -0.6420361 -0.20735738 -0.29967344 -0.61144054
000190 0a e5 ac be 57 8a 79 bd 17 23 43 bf 45 a6 0e bf
       -0.33768493 -0.060922947 -0.7622542 -0.5572246
0001a0 a2 f3 83 be 9e 75 97 bf e2 e3 43 bf e4 19 b0 be
       -0.25771815 -1.1832769 -0.76519597 -0.34394753
0001b0 c8 7d 40 3e 51 a6 19 bf 3b fb e5 bf 82 80 26 3c
       0.18797982 -0.60019404 -1.7967294 0.010162475
0001c0 eb 31 44 bc 71 af 45 bd 00 27 a7 3a 76 cf 99 bf
       -0.011974792 -0.048263017 0.0012752712 -1.2016437
0001d0 68 56 9e bf 3f 1f d4 bf 5b e0 a9 be 96 b6 a4 bf
       -1.2370119 -1.6572036 -0.33178982 -1.2868221
0001e0 a3 d7 03 3f 51 78 73 3e 1f d6 c0 bd d9 7a 50 3e
       0.5150091 0.23776366 -0.0941584 0.20359363
0001f0 14 2a 8e be e9 4d 7a 3e 92 ca 80 bd 53 3d 67 3e
       -0.27766478 0.24443783 -0.06288637 0.22581987
000200 06 74 cb be db 9a b1 3d 82 ab bd 3d ea 32 28 bb
       -0.39736956 0.086721145 0.09261228 -0.0025665113
000210 c9 6e 32 3e a0 78 6a be f5 e7 44 3e 4f 81 42 3d
       0.17425074 -0.22897577 0.1922911 0.0474866
000220 b0 5f 3d bf e3 b3 2e bf 25 ff d3 bf ab 09 c1 3b
       -0.7397413 -0.68243235 -1.6562239 0.005891045
000230 6e 05 e5 bc 10 89 0a bd 4e 5b 12 c0 26 ee f2 be
       -0.02795669 -0.03382212 -2.2868228 -0.47447318
000240 cb ec 46 bf 25 06 9a bf ea 7a 1e 3f 98 f7 18 bf
       -0.7770507 -1.2033125 0.619063 -0.597528
000250 51 55 23 be 03 82 96 be 2b 33 91 3e c0 8e 97 bd
       -0.15950514 -0.29396066 0.2835935 -0.07400274
000260 24 18 e7 bd c4 f5 83 bd 00 10 13 3e f7 9a 56 3d
       -0.11283901 -0.064433604 0.14361572 0.05239388
000270 dc e4 36 3e 9d e7 79 bd d2 07 ef 3d 33 1b 60 be
       0.1786074 -0.0610119 0.116714135 -0.21885376
000280 2e 4e c5 3d 3b 1d c8 be 0b 26 90 be 16 c7 a2 bc
       0.09634052 -0.390848 -0.28154024 -0.019870322
000290 09 b7 1c bf b1 2b 9f bf 17 4d 81 bf 0c ad 0e bf
       -0.6121679 -1.2435209 -1.0101651 -0.557328
0002a0 ee 95 44 bc 47 09 4b bd 80 d2 64 bf 2e 15 59 bf
       -0.011998637 -0.049569394 -0.893837 -0.8479794
0002b0 e9 64 76 be 65 55 a4 be 1b 08 83 be d4 7c 9d be
       -0.24061932 -0.320964 -0.2559212 -0.307593
0002c0 f6 1c 3a 3e ba ac 31 bf ef f0 c1 3a 54 a6 00 be
       0.1817511 -0.69404185 0.0014796535 -0.12563449
0002d0 1c f4 ff bd 55 69 3d 3e 51 43 ae 3a f3 bb c9 3d
       -0.12497732 0.18497212 0.0013295208 0.098503016
0002e0 ff af 22 be db cc 2e 3e 4e 71 c3 3d aa b6 e2 3d
       -0.1588745 0.17070334 0.095430955 0.11069997
0002f0 69 9a 29 bd a0 94 8f 3e 11 1a c8 3e c9 40 3b be
       -0.041407023 0.2804308 0.39082387 -0.18286432
000300 ff 54 53 bf 72 f7 ed bf e2 f1 44 c0 ed 15 c3 bf
       -0.8255157 -1.8591139 -3.0772634 -1.5241066
000310 fe b0 48 bd 24 cc ac bd 77 83 86 bf ed 90 b4 bf
       -0.048996918 -0.08437374 -1.050887 -1.4106728
000320 34 6d 30 be 79 26 7e 3e 99 9d 00 3e 48 04 90 3e
       -0.17229158 0.24819364 0.12560119 0.28128266
000330 9a 41 fb be 55 b8 83 3d fd 82 1f bd 62 06 91 3c
       -0.49073488 0.06431643 -0.03894328 0.017703239
000340 73 16 33 be bd b4 47 3e 1a be 04 bd 2b df 38 bc
       -0.17489032 0.1950254 -0.032407857 -0.011283676
000350 b6 3f 9f bd 84 64 a7 3e 01 40 94 3e ab 3c aa 3e
       -0.07775824 0.32693875 0.2895508 0.3324941
000360 08 68 31 bb ae 9f 67 3e a5 6b 4f be ad 2d 01 be
       -0.0027070064 0.22619507 -0.20255907 -0.1261508
000370 b3 5d 24 bf 11 35 d4 be 3a 07 39 c0 63 fb 83 3f
       -0.64205474 -0.41446736 -2.891066 1.0311092
000380 11 f9 11 40 b3 6e a3 bb 03 76 86 3f 82 55 e5 3f
       2.2808268 -0.0049875616 1.0504764 1.791672
000390 f8 b3 9e bf a3 d8 0c bf 73 ab b9 3c f2 60 20 3e
       -1.2398672 -0.5501806 0.022664761 0.15661982
0003a0 fa 8a 97 bd dc 23 82 3c ad e5 04 bc fa b0 14 bd
       -0.073995546 0.01588624 -0.0081114 -0.03630159
0003b0 19 53 b4 3e b1 d4 6d be 8f e4 ae 3e 9c 0f 79 3e
       0.35219648 -0.23225667 0.3415875 0.24322361
0003c0 f0 36 11 3f dd 80 1e 3e aa fb 71 3e a6 fd d8 bc
       0.5672445 0.15478845 0.23631158 -0.026488137
0003d0 6f e7 2f 3c 3b 6b c9 3d 32 6e cd 3c 15 c4 dd 3e
       0.01073633 0.09834906 0.02507696 0.4331366
0003e0 29 68 2b bf 24 36 1b c0 88 ba 50 c0 dd f7 da be
       -0.6695581 -2.4251795 -3.261385 -0.4276723
0003f0 76 6f 30 bc e4 1e 3a be d0 6d be 3f c7 f2 de be
       -0.010768762 -0.18175846 1.4877262 -0.435446

exp_avg f4 [10, 784]
000000 04 00 00 80 04 00 00 80 04 00 00 00 00 00 00 00
       -6e-45 -6e-45 6e-45 0.0
000010 04 00 00 00 04 00 00 80 04 00 00 80 04 00 00 00
       6e-45 -6e-45 -6e-45 6e-45
000020 04 00 00 00 00 00 00 00 04 00 00 00 04 00 00 00
       6e-45 0.0 6e-45 6e-45
000030 04 00 00 00 04 00 00 80 04 00 00 80 04 00 00 00
       6e-45 -6e-45 -6e-45 6e-45
000040 04 00 00 80 04 00 00 80 04 00 00 00 04 00 00 80
       -6e-45 -6e-45 6e-45 -6e-45
000050 04 00 00 80 04 00 00 80 04 00 00 80 04 00 00 00
       -6e-45 -6e-45 -6e-45 6e-45
000060 04 00 00 00 04 00 00 80 04 00 00 00 00 00 00 00
       6e-45 -6e-45 6e-45 0.0
000070 04 00 00 80 04 00 00 00 04 00 00 00 04 00 00 00
       -6e-45 6e-45 6e-45 6e-45
000080 04 00 00 80 04 00 00 80 04 00 00 00 04 00 00 80
       -6e-45 -6e-45 6e-45 -6e-45
000090 00 00 00 00 04 00 00 00 90 f8 ce 1b 78 68 49 a9
       0.0 6e-45 3.424047e-22 -4.4721578e-14
0000a0 f6 a2 f0 a9 d5 84 a9 a8 04 00 00 00 5d ec 1a b0
       -1.068641e-13 -1.8820376e-14 6e-45 -5.6360766e-10
0000b0 5b 35 ce b0 de 4c 4a b0 04 00 00 00 04 00 00 00
       -1.5003637e-09 -7.3596407e-10 6e-45 6e-45
0000c0 04 00 00 00 04 00 00 00 04 00 00 00 04 00 00 80
       6e-45 6e-45 6e-45 -6e-45
0000d0 04 00 00 80 04 00 00 80 04 00 00 80 04 00 00 00
       -6e-45 -6e-45 -6e-45 6e-45
0000e0 04 00 00 00 04 00 00 80 04 00 00 80 5c 42 4c 17
       6e-45 -6e-45 -6e-45 6.599971e-25
0000f0 04 00 00 80 8a 39 c0 0e 78 6a 2b 11 fa 9f fd 19
       -6e-45 4.7387062e-30 1.352233e-28 2.6224201e-23
000100 86 2f 35 1a 96 0d 23 04 22 d2 79 1d 26 40 5a a9
       3.7468312e-23 1.9166796e-36 3.3063512e-21 -4.8461364e-14
000110 5c 54 8a a9 fe 59 11 b2 86 5d e4 b1 31 42 d7 30
       -6.143065e-14 -8.460573e-09 -6.6463057e-09 1.5662122e-09
000120 d2 5c 86 31 09 e8 b1 2f 97 8b a8 a8 24 a6 d3 a9
       3.9104657e-09 3.2360983e-10 -1.8712284e-14 -9.399103e-14
000130 d4 5c 85 11 01 34 5a 0d 04 00 00 00 04 00 00 80
       2.104091e-28 6.7239034e-31 6e-45 -6e-45
000140 04 00 00 80 04 00 00 80 04 00 00 00 04 00 00 00
       -6e-45 -6e-45 6e-45 6e-45
000150 04 00 00 00 04 00 00 80 04 00 00 80 ce 8c 98 18
       6e-45 -6e-45 -6e-45 3.9433255e-24
000160 d4 77 9e ad a4 ac 9d ae a4 ac 9d ae 10 5f dd 30
       -1.8015735e-11 -7.1702005e-11 -7.1702005e-11 1.6106885e-09
000170 51 9c 6f 33 02 ac 30 34 1a 6d 7a 34 71 5a 31 35
       5.5788693e-08 1.6453853e-07 2.3322755e-07 6.606925e-07
000180 94 8c 75 35 0e 1e af 36 51 fc dc 36 32 66 e7 36
       9.147418e-07 5.2189052e-06 6.5858844e-06 6.8962336e-06
000190 ae 21 d4 36 2d f9 84 b7 ae c4 8c b5 d9 6f 05 36
       6.322013e-06 -1.5851658e-05 -1.0488054e-06 1.9883648e-06
0001a0 91 ca 48 35 42 a8 7d 35 6d e2 3d 35 e2 67 16 34
       7.480058e-07 9.449469e-07 7.073748e-07 1.4007631e-07
0001b0 48 09 d5 9e ff 14 19 9e 3e 97 8a 25 04 00 00 80
       -2.2556091e-20 -8.1040944e-21 2.404167e-16 -6e-45
0001c0 04 00 00 80 04 00 00 00 00 00 00 00 a7 9d 89 8b
       -6e-45 6e-45 0.0 -5.300769e-32
0001d0 12 1a 3e ad 71 ec 15 ae f9 67 09 b4 26 a1 81 b4
       -1.0806038e-11 -3.408868e-11 -1.2796944e-07 -2.4145373e-07
0001e0 97 24 99 34 f0 42 e4 36 a2 d1 4c 37 99 4c 26 37
       2.8525093e-07 6.802722e-06 1.22081565e-05 9.912205e-06
0001f0 97 3f 2f 37 08 b0 8b 37 c6 12 99 37 a8 de 23 37
       1.04456185e-05 1.6652062e-05 1.8247763e-05 9.767398e-06
000200 98 b9 be 37 b5 fa e3 36 82 c5 74 37 e4 d4 74 36
       2.2736189e-05 6.7943133e-06 1.4589519e-05 3.6482752e-06
000210 f0 60 ab b7 06 af a6 b7 98 f8 f9 b5 5a 48 4d 34
       -2.0429929e-05 -1.9870244e-05 -1.8624296e-06 1.9118434e-07
000220 1f 25 79 b2 a1 03 57 30 26 58 01 00 04 00 00 80
       -1.4502148e-08 7.82217e-10 1.23457e-40 -6e-45
000230 04 00 00 00 04 00 00 80 74 ee 52 33 f0 9f 86 8b
       6e-45 -6e-45 4.9111307e-08 -5.185557e-32
000240 f6 69 12 8b 5c 08 ce b2 8e 92 5f b4 0a 3c 1a b5
       -2.8198293e-32 -2.3985358e-08 -2.082181e-07 -5.745684e-07
000250 3b 39 02 36 7a b4 69 37 d4 2c 92 37 a8 06 ac 37
       1.9404822e-06 1.3929903e-05 1.7425431e-05 2.0507097e-05
000260 b3 ad 2c 37 3c f7 23 b7 8a dd 2e b7 18 20 bf 37
       1.0292441e-05 -9.773121e-06 -1.0422789e-05 2.278392e-05
000270 e8 3b c6 37 81 7d 32 38 8e 7e 83 38 de 2d 14 38
       2.3631335e-05 4.255539e-05 6.2701394e-05 3.5328667e-05
000280 ee 0f dd b6 a2 05 cf b7 68 ef b1 b6 96 de f0 b4
       -6.5881677e-06 -2.4678946e-05 -5.3028816e-06 -4.4865436e-07
000290 f2 33 38 b4 ef 76 90 32 04 00 00 00 04 00 00 00
       -1.7155233e-07 1.6817891e-08 6e-45 6e-45
0002a0 04 00 00 80 04 00 00 00 04 00 00 00 04 00 00 00
       -6e-45 6e-45 6e-45 6e-45
0002b0 27 21 90 b0 8c ae 89 30 ad c5 f0 b5 bc 65 02 b6
       -1.0486801e-09 1.0017671e-09 -1.7938925e-06 -1.9430727e-06
0002c0 21 9f aa 34 4c 68 64 37 56 71 02 38 18 02 2f 38
       3.178075e-07 1.36141425e-05 3.1099968e-05 4.17252e-05
0002d0 04 2d bd 37 44 39 69 36 e7 4e 4e b7 d4 c4 11 b7
       2.2551518e-05 3.4753039e-06 -1.2296928e-05 -8.688501e-06
0002e0 23 a7 2e 37 79 67 65 38 d1 68 5e 38 65 de 6c 38
       1.0410123e-05 5.469422e-05 5.3026542e-05 5.6473906e-05
0002f0 7a a8 4e 37 5a 90 73 b7 93 ac 56 34 1f db c7 34
       1.2317783e-05 -1.4517538e-05 1.9993085e-07 3.722607e-07
000300 a0 8f 89 34 a5 2a 51 34 44 98 3d 28 a2 a7 40 1d
       2.562274e-07 1.9480156e-07 1.0524625e-14 2.5497653e-21
000310 04 00 00 00 04 00 00 00 04 00 00 00 04 00 00 00
       6e-45 6e-45 6e-45 6e-45
000320 07 bb 57 33 5b 66 6e b6 7e 46 38 b7 c0 46 46 36
       5.022869e-08 -3.5524342e-06 -1.0983667e-05 2.954548e-06
000330 16 44 3d 37 4a 51 bf 37 f5 01 aa 37 7a dd 02 38
       1.128113e-05 2.2806827e-05 2.026649e-05 3.120068e-05
000340 66 5c d2 37 70 19 b3 b6 6a c0 af 36 44 0d 3d b7
       2.5076977e-05 -5.337577e-06 5.2378064e-06 -1.12683665e-05
000350 e7 cb 16 38 eb b7 95 37 c4 fb c3 37 c8 6d 0e 38
       3.5952686e-05 1.7847828e-05 2.3363049e-05 3.395768e-05
000360 8c 36 ac 35 a8 72 b0 b7 9e f4 40 b7 c3 7d 5b b7
       1.2830874e-06 -2.1034226e-05 -1.1501046e-05 -1.3082698e-05
000370 4a f5 3f b7 46 f8 a5 b6 59 c0 33 1c 04 00 00 00
       -1.1441598e-05 -4.946286e-06 5.9474735e-22 6e-45
000380 a1 64 8e 98 04 00 00 00 8e 4f 86 b0 18 64 11 b0
       -3.680775e-24 6e-45 -9.772394e-10 -5.2892934e-10
000390 16 9f f9 32 df 63 68 b7 dd eb bd b7 1c 78 5a b6
       2.9059759e-08 -1.3851531e-05 -2.2640388e-05 -3.2554444e-06
0003a0 42 e1 f4 36 c7 29 5e 37 6f a2 39 37 69 8f e2 37
       7.29799e-06 1.3241958e-05 1.1064679e-05 2.700808e-05
0003b0 b1 d5 f5 37 e4 01 a8 37 9a f2 98 37 f1 cd 58 38
       2.9305784e-05 2.0028041e-05 1.8232782e-05 5.169021e-05
0003c0 06 5c 75 38 87 40 d8 37 f5 d9 f0 37 55 00 6b 37
       5.8498255e-05 2.5779254e-05 2.8711724e-05 1.4007169e-05
0003d0 f2 9c c5 b7 31 d0 94 b7 2e c4 9c b7 f8 12 01 b6
       -2.3557313e-05 -1.7739922e-05 -1.8688002e-05 -1.923354e-06
0003e0 47 b5 55 35 d9 06 a5 35 e1 54 70 08 04 00 00 00
       7.9612477e-07 1.2295451e-06 7.2322148e-34 6e-45
0003f0 04 00 00 80 04 00 00 00 3c cf 88 ae b9 d2 91 b0
       -6e-45 6e-45 -6.221376e-11 -1.061003e-09

exp_avg_sq f4 [10, 784]
000000 3f b6 cc 1b 91 38 31 24 ec 8e 25 0d 00 00 00 00
       3.3866743e-22 3.842867e-17 5.1016586e-31 0.0
000010 b4 cc 53 20 ff 66 e5 23 8d f4 df 04 f4 01 00 00
       1.7940126e-19 2.487185e-17 5.2651632e-36 7e-43
000020 b5 95 77 09 00 00 00 00 d3 da 1d 21 f4 01 00 00
       2.9801935e-33 0.0 5.348328e-19 7e-43
000030 f4 01 00 00 f4 01 00 00 49 33 7c 1b 83 10 2d 07
       7e-43 7e-43 2.0861523e-22 1.3019926e-34
000040 b4 80 15 02 1e 12 26 09 ff 29 de 1b e2 5c 35 26
       1.0983727e-37 1.9990042e-33 3.6753959e-22 6.292287e-16
000050 a7 c0 a3 1f d2 6a 0e 04 77 dc 07 1b 81 61 08 1f
       6.93519e-20 1.674107e-36 1.1238174e-22 2.8879774e-20
000060 a6 fc b5 11 f4 01 00 00 5b ce 6b 0d 00 00 00 00
       2.8712471e-28 7e-43 7.2663357e-31 0.0
000070 de c5 d7 1b 3b 02 00 00 2e c7 f6 22 87 ea 35 1e
       3.5696635e-22 8e-43 6.6889323e-18 9.630559e-21
000080 63 16 00 00 aa 31 b2 03 2e 46 59 22 32 2e 33 14
       8.031e-42 1.0473302e-36 2.9446137e-18 9.046301e-27
000090 00 00 00 00 7a 76 c6 12 7d d0 7e 21 3e 01 cb 2b
       0.0 1.2524763e-27 8.633448e-19 1.4424362e-12
0000a0 a4 ef e1 2c 59 54 60 2a 67 b5 a7 26 8d e3 98 2a
       6.42149e-12 1.992446e-13 1.1637122e-15 2.715852e-13
0000b0 89 9b 70 2b 41 64 19 2a f4 01 00 00 f4 01 00 00
       8.5480977e-13 1.3623912e-13 7e-43 7e-43
0000c0 f4 01 00 00 a1 42 4a 13 7d c0 26 00 8e 04 00 00
       7e-43 2.5528835e-27 3.5588e-39 1.634e-42
0000d0 6d 76 84 0d 6a b3 98 21 6b f6 e7 02 f4 01 00 00
       8.163638e-31 1.0347411e-18 3.4083836e-37 7e-43
0000e0 17 2a cd 1d 62 6e 2f 13 44 80 91 0c 76 cc 97 27
       5.430657e-21 2.2142528e-27 2.2417984e-31 4.2132596e-15
0000f0 23 3f 0a 24 33 d0 00 1f 77 e1 91 25 39 a3 e7 2a
       2.997746e-17 2.7277273e-20 2.530627e-16 4.1147101e-13
000100 aa 90 5e 2a e4 47 e7 24 79 af 7e 25 3e cf 32 2c
       1.9767751e-13 1.0030207e-16 2.209044e-16 2.5410364e-12
000110 bf cb 52 2d c1 c4 23 2e 6d ac e2 2d f9 22 14 2d
       1.1982359e-11 3.723666e-11 2.5769798e-11 8.4205915e-12
000120 b8 a5 60 2e fe 9b ae 2a f7 00 8b 2c 44 0c 0e 2d
       5.107889e-11 3.101685e-13 3.9507247e-12 8.074489e-12
000130 fb cf 4a 29 21 11 cd 25 60 83 94 24 60 b1 ac 21
       4.5033404e-14 3.5573438e-16 6.4407327e-17 1.1702124e-18
000140 75 52 a8 21 31 06 3c 10 42 f9 07 12 4c 62 f2 05
       1.1405949e-18 3.7081232e-29 4.2905723e-28 2.2793679e-35
000150 f4 01 00 00 2e 00 99 19 d5 c0 94 1a 9b 8a 7a 2a
       7e-43 1.5819902e-23 6.15229e-23 2.2252549e-13
000160 11 de 0c 2a a5 e0 82 2a 95 6a d7 2b 07 21 bf 2d
       1.2511543e-13 2.3248517e-13 1.5306251e-12 2.1728853e-11
000170 cd 83 36 2f ba 1a 05 30 4e 02 2e 30 8f 88 a6 30
       1.6599629e-10 4.84231e-10 6.3304106e-10 1.2116902e-09
000180 bc 8e e3 30 ae 4e 38 31 b6 9b 77 31 0b 40 4c 31
       1.6556991e-09 2.6820248e-09 3.6031742e-09 2.9722311e-09
000190 7f 53 78 31 e9 84 76 31 4d 3f 40 31 1e d0 30 31
       3.6136212e-09 3.5873262e-09 2.797566e-09 2.5729672e-09
0001a0 26 51 cf 30 71 87 66 30 3b fc 83 2f 39 fe 83 2d
       1.5084296e-09 8.3865986e-10 2.4007982e-10 1.5005873e-11
0001b0 87 d8 4c 2c ab 10 b0 2a 94 8b 89 26 c6 48 07 0f
       2.911034e-12 3.1275446e-13 9.544117e-16 6.6700295e-30
0001c0 a7 98 96 0a f4 01 00 00 00 00 00 00 f0 3c 84 27
       1.4501896e-32 7e-43 0.0 3.670343e-15
0001d0 4c 67 85 29 79 8d 73 2a 30 2a 7d 2d 14 bf 01 2f
       5.9243056e-14 2.1631819e-13 1.43907525e-11 1.1800366e-10
0001e0 d7 c9 13 30 97 d6 c5 30 47 f2 2a 31 dd 6c 64 31
       5.376512e-10 1.4394627e-09 2.4875975e-09 3.3240248e-09
0001f0 b7 0f cb 31 b4 3a 29 32 1f fd 5f 32 66 53 80 32
       5.909864e-09 9.850442e-09 1.30378615e-08 1.4939086e-08
000200 76 cb 87 32 d9 3e 72 32 85 f5 38 32 c1 e2 22 32
       1.5808592e-08 1.4100544e-08 1.0766034e-08 9.481199e-09
000210 98 2e f4 31 de 80 7c 31 52 56 db 30 6c 54 0a 30
       7.1066317e-09 3.674408e-09 1.5958881e-09 5.032408e-10
000220 d7 d6 80 2f d6 ed f7 2d 89 5e 22 27 6e f0 3d 0d
       2.3435717e-10 2.818627e-11 2.2533264e-15 5.852953e-31
000230 f4 01 00 00 a9 ab df 23 d4 71 af 27 d7 3d 78 29
       7e-43 2.425041e-17 4.869567e-15 5.51207e-14
000240 8d 86 b8 2b 73 12 71 2d 7e 13 2a 2f 3d d3 38 30
       1.3111332e-12 1.37033605e-11 1.5468335e-10 6.7239e-10
000250 9a 32 06 31 c4 52 80 31 0b 63 ce 31 f7 f2 3a 32
       1.952833e-09 3.7346997e-09 6.006649e-09 1.0881869e-08
000260 32 40 8d 32 e6 13 bd 32 d3 08 e8 32 aa 6d ff 32
       1.6443753e-08 2.2011545e-08 2.7012367e-08 2.9735777e-08
000270 ea e8 06 33 8e 8e 00 33 9e 4e df 32 7f 87 a8 32
       3.141114e-08 2.9931975e-08 2.5996368e-08 1.961939e-08
000280 1b 3f 6a 32 87 56 0d 32 4a 96 7a 31 6f a5 c8 30
       1.3634941e-08 8.226954e-09 3.6465218e-09 1.4598934e-09
000290 ac c8 dc 2f b1 b0 01 2e fc 6a 3f 23 d2 a1 c4 1b
       4.0160353e-10 2.9488138e-11 1.03767856e-17 3.2530054e-22
0002a0 ff 98 61 11 f4 01 00 00 0a 55 03 24 1a 8f 08 26
       1.7796516e-28 7e-43 2.8478128e-17 4.7378417e-16
0002b0 8a a5 46 2d e3 4b c5 2f 2f 9d 53 30 b1 7a 05 31
       1.1291754e-11 3.5888012e-10 7.6984724e-10 1.942379e-09
0002c0 17 a6 8f 31 25 a2 0d 32 a7 4f 66 32 e2 c1 a1 32
       4.18073e-09 8.244148e-09 1.3405873e-08 1.8831035e-08
0002d0 02 69 cd 32 2d 5c 01 33 4b fa 16 33 c3 3e 23 33
       2.3912893e-08 3.0118986e-08 3.5152237e-08 3.8008476e-08
0002e0 5c 47 2d 33 2b 9a 27 33 dc 8c 17 33 79 b5 f5 32
       4.0344602e-08 3.9022932e-08 3.5285538e-08 2.8604278e-08
0002f0 d7 a8 b3 32 d2 5f 59 32 c9 93 ed 31 a1 04 43 31
       2.0915122e-08 1.2652849e-08 6.914409e-09 2.8378866e-09
000300 31 ad 1d 30 fa f2 80 2e 2d 0c 01 2a e9 bc 42 28
       5.7362387e-10 5.8639274e-11 1.1461726e-13 1.0810127e-14
000310 c2 0a 4e 08 f0 7d 99 20 23 eb c1 27 b0 63 a7 28
       6.2003516e-34 2.6002547e-19 5.3823197e-15 1.8583957e-14
000320 0b eb 29 2e 2c 21 e9 2f 69 1f a8 30 8e 18 7d 31
       3.863491e-11 4.2406023e-10 1.2232536e-09 3.6830303e-09
000330 6c 89 04 32 cc 76 5f 32 c7 e0 9f 32 95 6a ce 32
       7.714657e-09 1.300732e-08 1.8612253e-08 2.4030024e-08
000340 17 51 01 33 b7 c5 15 33 a7 c1 24 33 ad 7b 2f 33
       3.0108904e-08 3.4871587e-08 3.836035e-08 4.0857845e-08
000350 7b 25 2c 33 20 6b 29 33 1b 55 20 33 2a 37 09 33
       4.008096e-08 3.944581e-08 3.7330306e-08 3.194797e-08
000360 7e 7d db 32 27 df 9a 32 02 ef 3d 32 3a 9d c5 31
       2.5552023e-08 1.8029437e-08 1.1055592e-08 5.751329e-09
000370 ba fb d3 30 12 d2 de 2f 70 8f a3 29 c8 d0 72 26
       1.5423816e-09 4.053083e-10 7.2635366e-14 8.424357e-16
000380 b1 8a 19 2c d9 99 f2 1f 34 bc 05 29 d1 1e d8 2a
       2.1819597e-12 1.02745506e-19 2.9695173e-14 3.839069e-13
000390 38 81 7b 2e 62 7d 3c 30 9a 4d 1e 31 e3 bf d8 31
       5.7185562e-11 6.857218e-10 2.3036137e-09 6.3082424e-09
0003a0 99 0a 42 32 5b 76 8f 32 35 13 c1 32 4f c0 f8 32
       1.1294696e-08 1.6701213e-08 2.2476891e-08 2.8958452e-08
0003b0 cd 40 0a 33 1f 7d 1a 33 59 1f 22 33 b7 c0 21 33
       3.2189565e-08 3.5969716e-08 3.7747075e-08 3.7661007e-08
0003c0 8f c0 1e 33 8a c6 1e 33 93 eb 13 33 80 41 02 33
       3.6962373e-08 3.6967812e-08 3.4440358e-08 3.0327556e-08
0003d0 3b 51 e0 32 d0 63 a9 32 91 bc 6d 32 93 8a 06 32
       2.6113971e-08 1.9719579e-08 1.3838091e-08 7.831335e-09
0003e0 ea 82 e8 30 e3 73 e1 2e c3 2c ea 27 b9 3b 1b 25
       1.691743e-09 1.0252401e-10 6.4996578e-15 1.3464342e-16
0003f0 f4 01 00 00 c4 93 19 25 1b ee cf 2b 60 56 82 2d
       7e-43 1.33207e-16 1.4774322e-12 1.4817647e-11
